Load organism: Bacillus
('./fasta/Bacillus_neg.fa', './fasta/Bacillus_pos.fa')
Input Shapes
X: (1373, 51) | y: (1373,)
>>> Testing PARTITION 1
(1235, 51)
(1235,)
__________________________________________________________________________________________________
Layer (type)                    Output Shape         Param #     Connected to                     
==================================================================================================
input_1 (InputLayer)            (None, 51)           0                                            
__________________________________________________________________________________________________
embedding_1 (Embedding)         (None, 51, 9)        36          input_1[0][0]                    
__________________________________________________________________________________________________
conv1 (Conv1D)                  (None, 43, 256)      20992       embedding_1[0][0]                
__________________________________________________________________________________________________
dropout_1 (Dropout)             (None, 43, 256)      0           conv1[0][0]                      
__________________________________________________________________________________________________
conv1d_1 (Conv1D)               (None, 18, 256)      590080      dropout_1[0][0]                  
__________________________________________________________________________________________________
reshape_1 (Reshape)             (None, 576, 8)       0           conv1d_1[0][0]                   
__________________________________________________________________________________________________
lambda_1 (Lambda)               (None, 576, 8)       0           reshape_1[0][0]                  
__________________________________________________________________________________________________
digitcaps (CapsuleLayer)        (None, 1, 16)        74304       lambda_1[0][0]                   
__________________________________________________________________________________________________
input_2 (InputLayer)            (None, 1)            0                                            
__________________________________________________________________________________________________
mask_1 (Mask)                   (None, 16)           0           digitcaps[0][0]                  
                                                                 input_2[0][0]                    
__________________________________________________________________________________________________
dense_1 (Dense)                 (None, 512)          8704        mask_1[0][0]                     
__________________________________________________________________________________________________
dense_2 (Dense)                 (None, 1024)         525312      dense_1[0][0]                    
__________________________________________________________________________________________________
out_caps (Length)               (None, 1)            0           digitcaps[0][0]                  
__________________________________________________________________________________________________
dense_3 (Dense)                 (None, 51)           52275       dense_2[0][0]                    
==================================================================================================
Total params: 1,271,703
Trainable params: 1,271,127
Non-trainable params: 576
__________________________________________________________________________________________________
0 Train on SEED 23
Epoch 00001: val_loss improved from inf to 0.04778, saving model to ./result/org_Bacillus-batch_8-emb_9-rout_3-partition_1-seed_0-weights.h5
…
